(torch) chan@chan-desktop:~/Desktop/DLD1$ python train.py --model unet --dataset-type only_tumor
----------------------------------------------------------------
        Layer (type)               Output Shape         Param #
================================================================
            Conv2d-1         [-1, 64, 256, 256]             640
       BatchNorm2d-2         [-1, 64, 256, 256]             128
              ReLU-3         [-1, 64, 256, 256]               0
            Conv2d-4         [-1, 64, 256, 256]          36,928
       BatchNorm2d-5         [-1, 64, 256, 256]             128
              ReLU-6         [-1, 64, 256, 256]               0
         MaxPool2d-7         [-1, 64, 128, 128]               0
            Conv2d-8        [-1, 128, 128, 128]          73,856
       BatchNorm2d-9        [-1, 128, 128, 128]             256
             ReLU-10        [-1, 128, 128, 128]               0
           Conv2d-11        [-1, 128, 128, 128]         147,584
      BatchNorm2d-12        [-1, 128, 128, 128]             256
             ReLU-13        [-1, 128, 128, 128]               0
        MaxPool2d-14          [-1, 128, 64, 64]               0
           Conv2d-15          [-1, 256, 64, 64]         295,168
      BatchNorm2d-16          [-1, 256, 64, 64]             512
             ReLU-17          [-1, 256, 64, 64]               0
           Conv2d-18          [-1, 256, 64, 64]         590,080
      BatchNorm2d-19          [-1, 256, 64, 64]             512
             ReLU-20          [-1, 256, 64, 64]               0
        MaxPool2d-21          [-1, 256, 32, 32]               0
           Conv2d-22          [-1, 512, 32, 32]       1,180,160
      BatchNorm2d-23          [-1, 512, 32, 32]           1,024
             ReLU-24          [-1, 512, 32, 32]               0
           Conv2d-25          [-1, 512, 32, 32]       2,359,808
      BatchNorm2d-26          [-1, 512, 32, 32]           1,024
             ReLU-27          [-1, 512, 32, 32]               0
        MaxPool2d-28          [-1, 512, 16, 16]               0
           Conv2d-29         [-1, 1024, 16, 16]       4,719,616
      BatchNorm2d-30         [-1, 1024, 16, 16]           2,048
             ReLU-31         [-1, 1024, 16, 16]               0
           Conv2d-32         [-1, 1024, 16, 16]       9,438,208
      BatchNorm2d-33         [-1, 1024, 16, 16]           2,048
             ReLU-34         [-1, 1024, 16, 16]               0
         Upsample-35         [-1, 1024, 32, 32]               0
           Conv2d-36          [-1, 512, 32, 32]       7,078,400
             ReLU-37          [-1, 512, 32, 32]               0
           Conv2d-38          [-1, 512, 32, 32]       2,359,808
             ReLU-39          [-1, 512, 32, 32]               0
         Upsample-40          [-1, 512, 64, 64]               0
           Conv2d-41          [-1, 256, 64, 64]       1,769,728
             ReLU-42          [-1, 256, 64, 64]               0
           Conv2d-43          [-1, 256, 64, 64]         590,080
             ReLU-44          [-1, 256, 64, 64]               0
         Upsample-45        [-1, 256, 128, 128]               0
           Conv2d-46        [-1, 128, 128, 128]         442,496
             ReLU-47        [-1, 128, 128, 128]               0
           Conv2d-48        [-1, 128, 128, 128]         147,584
             ReLU-49        [-1, 128, 128, 128]               0
         Upsample-50        [-1, 128, 256, 256]               0
           Conv2d-51         [-1, 64, 256, 256]         110,656
             ReLU-52         [-1, 64, 256, 256]               0
           Conv2d-53         [-1, 64, 256, 256]          36,928
             ReLU-54         [-1, 64, 256, 256]               0
           Conv2d-55          [-1, 1, 256, 256]              65
================================================================
Total params: 31,385,729
Trainable params: 31,385,729
Non-trainable params: 0
----------------------------------------------------------------
Input size (MB): 0.25
Forward/backward pass size (MB): 747.50
Params size (MB): 119.73
Estimated Total Size (MB): 867.48
----------------------------------------------------------------
----------------------------------------------------------------
…
