(torch) chan@chan-desktop:~/Desktop/DLD1$ python train.py --epochs 200 --lr 0.003 --model unet --dataset-type undersample----------------------------------------------------------------
        Layer (type)               Output Shape         Param #
================================================================
            Conv2d-1         [-1, 64, 256, 256]             640
              ReLU-2         [-1, 64, 256, 256]               0
            Conv2d-3         [-1, 64, 256, 256]          36,928
              ReLU-4         [-1, 64, 256, 256]               0
         MaxPool2d-5         [-1, 64, 128, 128]               0
            Conv2d-6        [-1, 128, 128, 128]          73,856
              ReLU-7        [-1, 128, 128, 128]               0
            Conv2d-8        [-1, 128, 128, 128]         147,584
              ReLU-9        [-1, 128, 128, 128]               0
        MaxPool2d-10          [-1, 128, 64, 64]               0
           Conv2d-11          [-1, 256, 64, 64]         295,168
             ReLU-12          [-1, 256, 64, 64]               0
           Conv2d-13          [-1, 256, 64, 64]         590,080
             ReLU-14          [-1, 256, 64, 64]               0
        MaxPool2d-15          [-1, 256, 32, 32]               0
           Conv2d-16          [-1, 512, 32, 32]       1,180,160
             ReLU-17          [-1, 512, 32, 32]               0
           Conv2d-18          [-1, 512, 32, 32]       2,359,808
             ReLU-19          [-1, 512, 32, 32]               0
         Upsample-20          [-1, 512, 64, 64]               0
           Conv2d-21          [-1, 256, 64, 64]       1,769,728
             ReLU-22          [-1, 256, 64, 64]               0
           Conv2d-23          [-1, 256, 64, 64]         590,080
             ReLU-24          [-1, 256, 64, 64]               0
         Upsample-25        [-1, 256, 128, 128]               0
           Conv2d-26        [-1, 128, 128, 128]         442,496
             ReLU-27        [-1, 128, 128, 128]               0
           Conv2d-28        [-1, 128, 128, 128]         147,584
             ReLU-29        [-1, 128, 128, 128]               0
         Upsample-30        [-1, 128, 256, 256]               0
           Conv2d-31         [-1, 64, 256, 256]         110,656
             ReLU-32         [-1, 64, 256, 256]               0
           Conv2d-33         [-1, 64, 256, 256]          36,928
             ReLU-34         [-1, 64, 256, 256]               0
           Conv2d-35          [-1, 2, 256, 256]             130
================================================================
Total params: 7,781,826
Trainable params: 7,781,826
Non-trainable params: 0
----------------------------------------------------------------
Input size (MB): 0.25
Forward/backward pass size (MB): 591.00
Params size (MB): 29.69
Estimated Total Size (MB): 620.94
----------------------------------------------------------------
----------------------------------------------------------------
…
